mlruns/581030874069470179/1b45374f3d8e4588b05ed269d45b4f54/artifacts/mnist_model/model.onnx (onnx, 2615 bytes, 4 tensors)

conv1.bias f4 [32]
00000000: ef16 103e 344c 353c 798f 353c 6e13 213e
00000010: 3df9 9e3e a3a6 b2bd c643 f8bc 81c2 073d
00000020: aafe 4d3e 81f1 87be 6cf5 763e 74fa a23e
00000030: 207a 3dbe 6a5a a8bd 1e6b a9bd 5108 6dbe
00000040: 7269 d23d e13f 813e fe5f debd e4a9 e93d
00000050: 3fa3 00be 67a5 a33e 2dbe 133e c43d 8d3e
00000060: 98a8 d73d eabf 0dbe 500d 923e 19c9 283e
00000070: afc1 5e3e 23ab dabd ebaf c93e 1633 f9bd
0.14071248 0.0110655315 0.01108157 0.15730068 0.3104953 -0.0872319 -0.030305754 0.033144478
0.20116678 -0.2655144 0.24117059 0.31831706 -0.18503618 -0.0822037 -0.08272384 -0.23147704
0.10274018 0.25244048 -0.10858153 0.11409357 -0.12562273 0.3196213 0.14428015 0.27586186
0.105302036 -0.1384274 0.28525782 0.16482963 0.21753572 -0.10677173 0.39392027 -0.12167947

conv2.bias f4 [64]
00000000: c245 b73c 2208 0b3d 4760 d3bc fd4f 0f3d
00000010: cee7 553d 3f5f 9ebc 87c6 9b3c d58a 3b3d
00000020: c0e2 81bb a335 1cbd 6b11 2cbb 39a8 4a3b
00000030: 9c2c 753c 0845 133d 0dba 35bd f0d7 4a3c
00000040: efc4 fbbb 3c2c 29bd d201 0e3d ddff 083d
00000050: 704c 253d 9b02 813c ab43 4cbd ab20 70bd
00000060: e510 0abd 419c 243d e833 c73c 5ea1 d43c
00000070: f339 41bd 704f 4e3a 0e4b 87bd b888 723c
00000080: bfdd 013d da88 60bd 4fd8 3cbc fd9e 2dbd
00000090: 3a74 713b 77ff 09bc 9d54 71bc 9b5a 8dbd
000000a0: b414 2e3d ce60 b73b cb0b 403d cafc edbc
000000b0: e1b2 1abd 552e ec3c 1a2e b5bc 9b83 7cbd
000000c0: ea3a 423d 0afe 4dbd 1b88 d639 9c39 713d
000000d0: 4141 883a 84d4 1a3d f59a 42bd 9050 253d
000000e0: 2c57 00bc e869 54bb 2797 34bb 3660 403d
000000f0: 8823 bd3a dff9 e73c 994d dcbc 4b0c b9bb
0.02237213 0.033943303 -0.025802745 0.034988392 0.05222302 -0.019332526 0.019015564 0.045786697
-0.0039637983 -0.03813709 -0.00262555 0.0030923022 0.014964249 0.035954505 -0.044366885 0.012380585
-0.0076833884 -0.04130195 0.034669705 0.033447135 0.0403561 0.015748313 -0.04986922 -0.058624905
-0.033707518 0.040188078 0.024316743 0.025955852 -0.047174405 0.00078701135 -0.066061124 0.014803104
0.031705614 -0.05481801 -0.011526181 -0.04238795 0.0036842958 -0.008422724 -0.014729646 -0.06902047
0.042500213 0.005596257 0.046886247 -0.029051203 -0.03776825 0.028830687 -0.02211671 -0.061648946
0.047419466 -0.0502911 0.00040918667 0.05889283 0.0010395424 0.037800327 -0.04751106 0.040360034
-0.007833283 -0.0032411758 -0.0027555914 0.046966754 0.0014430145 0.02831739 -0.02689247 -0.0056472174

fc1.bias f4 [128]
00000000: d3ea 25bc 8516 e03a 9573 7d3b ff3b d3bb
00000010: eb60 9fbb f4c9 febb d6da aabb 258a c83b
00000020: c204 ba3b bd7c 023c 8da4 303b 1139 76bb
00000030: d5da beba bbd6 c8ba 7761 5dbb d1b7 35bc
00000040: 2dc4 2abc a68d 60bb 344e ca3b 670d 9fba
00000050: 37e1 063c 5e09 e23b 849c afba 460b 013c
00000060: a146 1d3c c196 573b c131 a0bb a7f5 d63a
00000070: 7de2 ddba 109a ba3b 857d e13b ec76 d93a
00000080: 834a 093b 013b 4f3b c74a 60bb 1d42 fdbb
00000090: c64c 353a e3d4 0ebc 1973 a5ba 929a bcbb
000000a0: 7131 2a3c fe1f eabb 299c fbbb 4eaf c9bb
000000b0: 2149 ae3b 65ba 23bb 98f8 8cbb d6e9 fbbb
000000c0: ca6c 343b f4cd 8fbb 26fc 00bc 87e1 a6bb
000000d0: b811 153b f842 36ba d1cb 8ebb 974e 1cbc
000000e0: 811d 87ba 4808 0a3b 8564 e4bb 5d30 33bc
000000f0: 673e b6ba 9ee6 96bb 0ecd 6cbb 784e 923b
00000100: f56b 463c d70d a33a 00b2 d93b 65e1 3cbc
00000110: 332f a1ba 5e3b 24bb 594d 13bc 4ca1 d6bb
00000120: b764 673b f407 a6bb c340 663b b378 9e3b
00000130: ec97 013c f2b9 0ebc a2c1 c4ba a32c 74ba
00000140: a0c6 0f3c 02ed 1a3c 6fc2 e93b c3a7 5e3b
00000150: f2ab 88bb 913b f4bb 0724 653b 4ab6 bfba
00000160: a869 fa3b fb2d 013c 0568 173c 664f e73b
00000170: ced3 373c 0bb6 b73b db19 2abc a2ca ee3a
00000180: 3e39 eebb 719b 093c 531f 093c f013 03bc
00000190: 3ce0 f6bb f039 263b dc47 2d3b 10f6 a73b
000001a0: d93c 82bb 5124 0ebc cf02 b73b 88ff 2c3c
000001b0: 65e0 783b e182 193b 49c1 dfbb 46d2 bab9
000001c0: 3f02 2bba 5bd4 cd3b 253f 343a d519 a2ba
000001d0: 80f6 42b9 e050 9f3b 5043 df3a b9fc c63a
000001e0: bdf7 123c 8743 1bbb 6c40 b8bb 8072 c83b
000001f0: f4f1 ea3a 09b1 e8bb c460 3c3b 8144 c9bb
-0.010126787 0.0017096555 0.0038673629 -0.006446361 -0.0048638484 -0.0077755395 -0.0052140756 0.0061199837
0.0056768367 0.00796431 0.0026953549 -0.0037570635 -0.0014561067 -0.0015322784 -0.0033780017 -0.0110911885
-0.0104227485 -0.0034264117 0.0061738733 -0.0012134732 0.008232406 0.0068980893 -0.0013398086 0.007876223
0.009599359 0.0032896253 -0.0048887436 0.0016400114 -0.0016928461 0.005694635 0.006881418 0.0016591228
0.0020948953 0.0031620862 -0.0034224258 -0.0077288286 0.0006916042 -0.008717748 -0.0012622803 -0.005755731
0.010387764 -0.007144927 -0.007678528 -0.006154931 0.0053187762 -0.0024982926 -0.0043020956 -0.0076877875
0.0027530664 -0.004388565 -0.007872617 -0.005092803 0.0022746157 -0.0006952728 -0.004357793 -0.009540222
-0.0010308475 0.0021062065 -0.0069699907 -0.010936824 -0.0013904095 -0.0046051284 -0.0036132964 0.0044649206
0.0121107 0.0012440038 0.0066435337 -0.011528348 -0.0012297392 -0.00250598 -0.008990609 -0.00654999
0.0035307833 -0.005066866 0.0035133816 0.004836166 0.007909756 -0.008711325 -0.001501132 -0.0009314513
0.008775383 0.009455921 0.007133774 0.0033974505 -0.004170888 -0.00745339 0.00349641 -0.001462647
0.0076419897 0.007884498 0.009241109 0.0070590256 0.011219932 0.005606418 -0.010382141 0.0018218348
-0.0072700074 0.0083988765 0.008369285 -0.008000359 -0.007534055 0.0025364123 0.0026440537 0.0051257685
-0.0039745388 -0.008675651 0.0055850516 0.01055897 0.0037975546 0.0023423957 -0.0068284613 -0.0003563335
-0.0006523467 0.0062814183 0.00068758643 -0.0012367318 -0.0001859311 0.004861936 0.001703361 0.0015181518
0.008970198 -0.0023691372 -0.005622914 0.006117165 0.0017924891 -0.0071011824 0.00287442 -0.0061421995

fc2.bias f4 [10]
00000000: 2437 97bc ca46 473d 733d a4bd 1c4e b4bd
00000010: 1411 183d 3fe5 9c3d b4d1 afbd 4a99 0ebd
00000020: ca75 9c3d 71a6 73bb
-0.01845891 0.048651494 -0.08019533 -0.08803961 0.037125662 0.07660913 -0.085849196 -0.034814157
0.07639654 -0.0037178064
